11-magic-wand/model/magic_wand.tflite (tflite, 20208 bytes, 8 tensors)

sequential/conv2d/BiasAdd/ReadVariableOp/resource f4 [8]
0	0xc03d89ad	-2.961528
1	0x3f60e10e	0.87843406
2	0xbf167c80	-0.5878372
3	0xbdb2fb57	-0.087393455
4	0xc010c4e0	-2.2620163
5	0xc01ab621	-2.4173663
6	0xbfebba8a	-1.8416302
7	0xc02f1922	-2.735909

sequential/conv2d_1/BiasAdd/ReadVariableOp/resource f4 [16]
0	0xbe110e96	-0.1416572
1	0x3fc34d69	1.5257999
2	0xbe899095	-0.2686812
3	0x3f5c7e64	0.86130357
4	0xbfe34d45	-1.7757956
5	0xbe596a7c	-0.21232027
6	0xbf399943	-0.72499484
7	0x3e9ce415	0.30642763
8	0xbf638f54	-0.88890576
9	0x3f54fde2	0.83199894
10	0xbf3e9bf2	-0.74456704
11	0xbf620b43	-0.88298434
12	0x3f1c27b8	0.60998106
13	0xbfc7cd77	-1.5609578
14	0xbe35dbdb	-0.1775965
15	0xbf18339f	-0.5945377

sequential/dense/BiasAdd/ReadVariableOp/resource f4 [16]
0	0x3fa36af3	1.2767013
1	0xbe897733	-0.26848754
2	0xbe30db1f	-0.17271088
3	0xbe2f454b	-0.17116277
4	0xbf1259f7	-0.57168525
5	0x3fdb8300	1.7149353
6	0xbe43a987	-0.19107638
7	0x3dc3990b	0.09550675
8	0xbc9d618b	-0.019211551
9	0x3f0f8e03	0.5607607
10	0x3fbdbe7d	1.4823757
11	0xbe1f8bc3	-0.15580659
12	0xbe3ae7c3	-0.18252473
13	0x4007c06b	2.1211193
14	0xbe5229de	-0.20523784
15	0x3e9c49c0	0.30525017

sequential/dense_1/BiasAdd/ReadVariableOp/resource f4 [4]
0	0xc0002fea	-2.0029244
1	0x402aef94	2.6708727
2	0xc00ef503	-2.2337043
3	0xbf8f5b3b	-1.1199716

sequential/dense/MatMul f4 [16, 224]
0	0x3eb66486	0.35623568
1	0x3ea60d6b	0.32432112
2	0x3d9f2c59	0.077721305
3	0x3dee915d	0.116488196
4	0xbefb95c8	-0.49137712
5	0x3e320946	0.1738635
6	0x3e066c07	0.13127147
7	0x3d9144d4	0.07093206
8	0x3e59b397	0.21259914
9	0x3f65ca3e	0.8976172
10	0xbe8dac53	-0.27670535
11	0x3dd4c653	0.1038939
12	0x3f89c95c	1.0764575
13	0xbd806eef	-0.06271159
14	0x3da08909	0.078386374
15	0xbdea1ada	-0.11430903
16	0x3dc1a5e4	0.09455469
17	0x3dac3e48	0.08410317
18	0xbd8d1b05	-0.06889919
19	0x3e5d1f4a	0.21593967
20	0x3dbf179f	0.09330677
21	0xbb84e4bf	-0.004055589
22	0xbeeba756	-0.46026105
23	0xbdd2a11d	-0.10284636
24	0xbe80ff78	-0.25194907
25	0x3d9efbb5	0.07762853
26	0xbe507c41	-0.20359899
27	0xbe68964c	-0.22713584
28	0x3ebb9230	0.3663497
29	0xbea46e99	-0.3211563
30	0xbdfe8e35	-0.124294676
31	0x3db4a2ba	0.088201
32	0x3d23e055	0.04000886
33	0xbd92867d	-0.07154558
34	0x3d93ce44	0.072170764
35	0x3e846d7a	0.25864774
36	0x3eb79e61	0.3586302
37	0xbd4b43e2	-0.049625285
38	0xbe8b7562	-0.27237993
39	0x3b24a267	0.0025121213
40	0xbeb23d0c	-0.348122
41	0x3e3503c4	0.17677218
42	0xbe359629	-0.17733063
43	0xbee5bb19	-0.44869307
44	0xbd8cfaf2	-0.068838015
45	0xbe71e3bb	-0.23622029
46	0xbd8f5525	-0.06998662
47	0x3e409871	0.18808152
48	0x3b0bcb9e	0.0021331082
49	0x3d4015b5	0.0468957
50	0xbdf61423	-0.120155595
51	0x3e351e35	0.17687304
52	0x3ed938dd	0.42426196
53	0x3e7bbcb9	0.2458371
54	0xbe5b4386	-0.21412477
55	0xbddf574f	-0.10905325
56	0xbde4278f	-0.11140358
57	0x3db4fad6	0.08836906
58	0xbe47a763	-0.19497447
59	0xbe5f464b	-0.21804158
60	0xbd47d568	-0.048787504
61	0xbd7d73a9	-0.06187788
62	0xbdbb4596	-0.09144132
63	0x3d3e2e59	0.04643092
64	0xbe25df64	-0.16198498
65	0xbc18e7e5	-0.009332632
66	0x3e6188e2	0.22024873
67	0x3cb67c98	0.022276208
68	0x3ee9e00d	0.4567875
69	0x3d814bca	0.06313284
70	0xbdfade2d	-0.12249408
71	0xbd8ca634	-0.06867638
72	0xbe73298a	-0.23746315
73	0x3d17c922	0.03705705
74	0xbe5154ee	-0.20442554
75	0xbeb47c64	-0.35251153
76	0xbdc374c0	-0.09543753
77	0xbe411e16	-0.18859133
78	0xbdca8c03	-0.09889986
79	0xbd643a25	-0.055719513
80	0xbd82830e	-0.06372653
81	0x3dbcc70e	0.09217654
82	0x3deb3d89	0.11486346
83	0x3d97721a	0.0739481
84	0x3e51c241	0.20484258
85	0x3db3134f	0.08743917
86	0xbd1300ad	-0.035889316
87	0xbddad25d	-0.10684655
88	0xbeae6487	-0.3406107
89	0x3b3e73c9	0.0029060713
90	0xbe5141c6	-0.20435247
91	0xbec6c186	-0.38819522
92	0x3d638f79	0.055556748
93	0xbd29f091	-0.041489188
94	0x3d1f3f08	0.03887847
95	0x3d120d2d	0.035657097
96	0x3d4516a0	0.04811728
97	0x3dd8db25	0.105886735
98	0x3def4424	0.11682919
99	0x3dd2d015	0.10293595
100	0x3e6f9ab7	0.23398863
101	0x3e356c23	0.17717032
102	0xbe1b0e83	-0.15142255
103	0x3d9e178d	0.07719336
104	0xbe5195eb	-0.20467345
105	0x3d7510f5	0.059830625
106	0xbd7c4609	-0.06159023
107	0xbec2aa76	-0.38020676
108	0x3e6f79de	0.23386332
109	0x3c5d7ddd	0.013518778
110	0x3d562f76	0.052291356
111	0x3c80f8f8	0.015743718
112	0x3d287fca	0.041137494
113	0x3d23f075	0.04002424
114	0x3d4b4dd0	0.049634755
115	0x3e03b721	0.12862827
116	0x3e35450e	0.17702124
117	0x3dfe2877	0.12410062
118	0xbe4dc9f3	-0.20096569
119	0xbd61d161	-0.05513132
120	0xbeb82a5f	-0.35969827
121	0x3e00e4a0	0.12587214
122	0x3e57f8f7	0.21091066
123	0xbdecc438	-0.11560863
124	0x3e5d4a85	0.21610458
125	0x3d37dc90	0.04488808
126	0xbd50a4ed	-0.050938535
127	0x3dcb6adc	0.09932491
128	0xbd5463e6	-0.051853083
129	0xbcd8c659	-0.026461767
130	0xbc874054	-0.016510166
131	0x3e445224	0.19171959
132	0x3dfeb548	0.124369204
133	0x3de70dfb	0.112819634
134	0xbd4ca4be	-0.049961798
135	0x3d58a8dd	0.052895416
136	0xbe0fca3b	-0.14041989
137	0x3d870bd4	0.06594053
138	0x3d0de9ca	0.034646787
139	0xbe45e4bc	-0.19325536
140	0xbc6d506c	-0.014484506
141	0xbd238482	-0.03992129
142	0xbdee2fd9	-0.1163022
143	0xbb019a8e	-0.001977596
144	0xbd468ccc	-0.048474118
145	0x3da75527	0.081705384
146	0x3d421e61	0.047392253
147	0x3e973f41	0.29540446
148	0x3dcfda28	0.10149032
149	0x3e481721	0.19540073
150	0xbe637539	-0.22212686
151	0xba9845bc	-0.0011617462
152	0xbd3b4ee5	-0.045729537
153	0x3dfe309e	0.12411617
154	0xbe05b10c	-0.1305582
155	0xbe776bab	-0.24162166
156	0xbb3587f9	-0.0027699454
157	0xbe5d0071	-0.215822
158	0xbe274c36	-0.16337666
159	0xbd25e0b7	-0.040497508
160	0x3da0d683	0.07853415
161	0xbc268bdd	-0.010165182
162	0xbe7ed5dc	-0.24886268
163	0x3e4e0797	0.20120083
164	0x3c51003f	0.012756406
165	0x3df2959f	0.11844944
166	0xbeeb7df3	-0.4599453
167	0xbd9aee8b	-0.0756503
168	0xbce97c1a	-0.028501559
169	0x3e2b56de	0.16732356
170	0xbe898306	-0.26857775
171	0x3c002060	0.007820219
172	0xbda1a9eb	-0.078937374
173	0xbe1119cc	-0.14169997
174	0xbe17f644	-0.14840037
175	0x3dc4a462	0.09601666
176	0x3dd5d7f2	0.10441579
177	0x3d358c4e	0.044323258
178	0xbe4bc54b	-0.1989948
179	0x3e9f765a	0.31144983
180	0xbdd29ef9	-0.10284228
181	0x3d1a38fd	0.037652005
182	0xbe8f6bf3	-0.28012046
183	0x3dd574ff	0.10422706
184	0x3dbe2c4f	0.09285795
185	0x3e6dbe28	0.2321707
186	0xbeb1b634	-0.34709322
187	0xbdc14e45	-0.09438757
188	0xbde85323	-0.11343982
189	0xbded208a	-0.11578472
190	0xbdb27b57	-0.087149315
191	0x3dd3cc03	0.103416465
192	0xbc8f27ad	-0.017474974
193	0x3be4ccd8	0.006982427
194	0xbe17e64d	-0.14833947
195	0x3e84ca74	0.2593571
196	0x3d6328d8	0.055458874
197	0xbc5a1430	-0.013310477
198	0xbdc5e33c	-0.09662482
199	0x3d9b75a0	0.075907946
200	0x3e0f0ac1	0.13968946
201	0x3e55d6b6	0.20882687
202	0xbe7bb1c9	-0.24579538
203	0xbdda08d2	-0.106462136
204	0xbd1b4be8	-0.037914187
205	0xbdc3d9b4	-0.09563008
206	0xbdca4e95	-0.098782696
207	0x3e06091a	0.1308941
208	0xbdcc7125	-0.09982518
209	0x3ca6aca7	0.020345999
210	0x3e373327	0.17890607
211	0x3cc8a4ef	0.024492709
212	0xbe712a32	-0.23551252
213	0xbe27ae9a	-0.16375199
214	0x3c42f3a0	0.011898905
215	0x3df4612d	0.11932597
216	0x3dc6137d	0.09671686
217	0x3ea871ce	0.32899326
218	0xbe8aa842	-0.27081496
219	0xbd436c7d	-0.047710884
220	0x3da10fe8	0.07864362
221	0xbd6b08ed	-0.05738156
222	0x3e38a575	0.18031867
223	0x3d7b9e6c	0.06143038
224	0xbabaa170	-0.0014238786
225	0xbe32e6b8	-0.17470825
226	0xbd43f3ae	-0.047839813
227	0x3cd7f354	0.026361145
228	0xbdf763c7	-0.12079578
229	0xbe250278	-0.16114223
230	0x3ce27ccb	0.027647397
231	0x3cd4313e	0.025902387
232	0xbe3241f4	-0.17407972
233	0x3d5a9a04	0.053369537
234	0xbd95fd8f	-0.07323753
235	0xbe0a34bb	-0.13496678
236	0xbd86025e	-0.0654342
237	0x3dd92c8f	0.10604202
238	0xbe17ae35	-0.14812548
239	0xbe018ac3	-0.1265059
240	0xbca0b2e3	-0.01961655
241	0xbd7c7e6e	-0.06164401
242	0xbe08f664	-0.1337524
243	0x3db4b504	0.088235885
244	0xbe8590b9	-0.26086977
245	0xbb0f7d6e	-0.002189483
246	0xbd9771a9	-0.07394726
247	0x3d5336c1	0.05156589
248	0x3c77ba5e	0.015120117
249	0xbda1c134	-0.07898179
250	0xbdeafdfb	-0.11474224
251	0xbe399154	-0.18121845
252	0x3df48e07	0.11941152
253	0xbe8714e8	-0.26383138
254	0xbe4c5002	-0.19952396
255	0xbdce3234	-0.10068169

sequential/dense_1/MatMul f4 [4, 16]
0	0xbe8078dc	-0.25092208
1	0x3ea43c07	0.32077047
2	0x3e26f16a	0.1630303
3	0x3ed936a1	0.4242449
4	0x3e8dd4a7	0.27701303
5	0x3d979a30	0.07402456
6	0x3bbef0e1	0.005827055
7	0xbe61494d	-0.22000618
8	0xbe75662e	-0.2396476
9	0x3dbfb7e3	0.093612455
10	0x3d9e8b96	0.07741468
11	0x3e8335b7	0.2562692
12	0xbe11a797	-0.14224087
13	0xbe62421e	-0.22095534
14	0xbead4a0f	-0.33845565
15	0x3e9473c3	0.2899457
16	0xbe97db09	-0.29659298
17	0xbea0a806	-0.31378192
18	0xbed3694a	-0.41291267
19	0x3ed25273	0.4107853
20	0x3e564712	0.20925549
21	0xbd2e6916	-0.042580687
22	0xbe9cd355	-0.30629984
23	0xbe69192b	-0.22763507
24	0xbe9e64cb	-0.30936274
25	0x3daa6e6f	0.08321845
26	0x3d523663	0.0513214
27	0x3ea07720	0.31340885
28	0xbe4990f7	-0.19684206
29	0xbeaa6c2b	-0.3328565
30	0xbeaa9d69	-0.3332322
31	0x3e90e14c	0.28296888
32	0xbe816028	-0.25268674
33	0xbe5f00c3	-0.21777634
34	0xbe9ce921	-0.30646613
35	0xbd6708ea	-0.056404985
36	0x3e79d789	0.24398626
37	0x3d104271	0.035219613
38	0x3dff640b	0.124702536
39	0xbe034fcd	-0.1282341
40	0xbe779b97	-0.24180447
41	0x3e187893	0.14889745
42	0x3e3082a1	0.17237331
43	0x3ec6fb84	0.38863766
44	0xbebb5719	-0.36589888
45	0xbe432340	-0.19056416
46	0xbe655769	-0.22396626
47	0x3e9bf329	0.30458954
48	0xbe6cf4d0	-0.23140264
49	0xbd17eb45	-0.037089605
50	0xbeb66a39	-0.35627916
51	0xbe202e40	-0.15642643
52	0x3e6f880b	0.2339174
53	0x3d73a055	0.059479076
54	0x3ecf50b8	0.4049127
55	0xbe48f431	-0.19624402
56	0xbe9236e9	-0.28557518
57	0x3df0b681	0.1175356
58	0x3e1580a8	0.1459986
59	0x3eb69b40	0.3566532
60	0xbeca94a2	-0.39566523
61	0xbdc2d987	-0.09514146
62	0xbeb07f41	-0.34472087
63	0x3eb1a86a	0.34698802

sequential/conv2d/Conv2D f4 [8, 4, 3, 1]
0	0xbd3cbc95	-0.046078283
1	0x3d99ec41	0.07515765
2	0x3e4e79c2	0.20163634
3	0x3df8b07d	0.121430375
4	0xbd9d4ffe	-0.07681273
5	0x3dd86b62	0.10567357
6	0xbce4730e	-0.027886894
7	0xbc9f92d9	-0.019479202
8	0xbcf01e83	-0.029311424
9	0xbcda0200	-0.026612282
10	0x3ca0d821	0.019634308
11	0xbdf3149d	-0.11869166
12	0x3de02de7	0.10946255
13	0xbe110658	-0.14162576
14	0xbf042a5b	-0.5162713
15	0x3e580f4d	0.21099587
16	0xbe0468dc	-0.12930626
17	0xbd9ec410	-0.0775224
18	0xbe3f2464	-0.18666226
19	0x3e718ffc	0.23590082
20	0x3ca4a1ce	0.020096686
21	0xbe724c48	-0.23661911
22	0xbe0d8c1c	-0.13822979
23	0xbebcba5a	-0.36860925
24	0x3d841ece	0.06451188
25	0xbdeb5f21	-0.11492754
26	0xbe00c850	-0.12576413
27	0x3e034944	0.12820917
28	0x3dc28904	0.0949879
29	0xbd0d9389	-0.03456453
30	0x3dcd9c0a	0.10039528
31	0xbe04453f	-0.1291704
32	0x3d1ace90	0.03779465
33	0x3dd6d7cf	0.10490381
34	0x3e010179	0.12598218
35	0xbcb02dff	-0.021506308
36	0xbcc542fb	-0.02407979
37	0x3eb830b8	0.3597467
38	0xbe09370b	-0.13399903
39	0x3dd8fd71	0.10595215
40	0x3b7e0c5d	0.0038764693
41	0xbe24fa2e	-0.16111061
42	0x3bbdf769	0.005797316
43	0xbe600d31	-0.21880032
44	0x3b42f4e0	0.0029748008
45	0x3e04dfa6	0.1297594
46	0xbe62faf4	-0.22166044
47	0xbe0ee620	-0.13954973
48	0xbdd744b5	-0.10511152
49	0xbe62905c	-0.22125381
50	0x3e5c06df	0.21486996
51	0xbd2dc289	-0.04242185
52	0xbdfecc06	-0.12441258
53	0x3e55cb2f	0.2087829
54	0x3ca622c5	0.020280251
55	0xbcf01933	-0.02930889
56	0xbe014c8a	-0.12626854
57	0xbcc18edc	-0.023627691
58	0x3dd1068f	0.10206329
59	0xbebb4bd3	-0.36581287
60	0x3da73eba	0.08166261
61	0xbe0c26b3	-0.13686638
62	0xbcaf682d	-0.02141198
63	0xbd2c8a19	-0.042123888
64	0xbdb06c23	-0.086143754
65	0x3d54cc44	0.051952615
66	0x3d35bc8a	0.044369258
67	0xbddccfdd	-0.10781834
68	0xbd9061b0	-0.070498824
69	0x3da567ba	0.08076425
70	0xbe22ec58	-0.1591047
71	0xbc81d3da	-0.015848089
72	0xbee79cb4	-0.45236742
73	0xbbbec0ae	-0.005821309
74	0xbdc4fc23	-0.09618404
75	0x3d823abc	0.06358859
76	0xbdb2030a	-0.08691986
77	0x3c9f0822	0.019413058
78	0x3de58450	0.11206877
79	0xbd91ec5e	-0.071251616
80	0xbe0a222d	-0.134896
81	0xbc2ad986	-0.010427838
82	0xbe243af9	-0.16038121
83	0x3d7f47ea	0.062324442
84	0xbe28a922	-0.16470769
85	0xbda739e3	-0.08165338
86	0xbeb36a37	-0.35041973
87	0xbcc102d5	-0.02356092
88	0xbd4bc617	-0.04974946
89	0x3d58db40	0.052943468
90	0x3d97de09	0.07415397
91	0x3d12becb	0.035826486
92	0x3e1abb70	0.15110564
93	0x3cbee08f	0.023300437
94	0x3d1ce60f	0.03830534
95	0x3e4eb17b	0.20184891

sequential/conv2d_1/Conv2D f4 [16, 4, 1, 8]
0	0xbec6a4ea	-0.38797694
1	0x3a48eec2	0.0007664972
2	0xbdb49c86	-0.08818917
3	0xbe45d383	-0.19318967
4	0xbc6103cc	-0.013733815
5	0x3e58b023	0.21160941
6	0x3ef2578d	0.4733242
7	0xbea44628	-0.32084775
8	0xbee7afc5	-0.4525129
9	0x3daba49f	0.08381008
10	0x3dcc6efa	0.099821046
11	0x3d4de58f	0.050267752
12	0x3e87d782	0.26531607
13	0xbe174df5	-0.14775832
14	0xbd682c13	-0.056682657
15	0x3dc7d97f	0.09758281
16	0xbe9e2e05	-0.30894485
17	0xbe2e6879	-0.1703204
18	0x3e0c8ae4	0.13724858
19	0x3cc038ad	0.023464525
20	0xbe8a69de	-0.27033895
21	0xbea06323	-0.31325635
22	0xbe5b78bf	-0.2143278
23	0x3ceea549	0.029131548
24	0xbda0ce3b	-0.07851835
25	0xbf174b0f	-0.59098905
26	0x3e40c9e9	0.18827023
27	0xbd40c696	-0.047064386
28	0xbe4d3193	-0.20038442
29	0xbe9a60ad	-0.30151883
30	0xbed79999	-0.42109373
31	0x3df628a8	0.12019473
32	0x3dcfbef7	0.101438455
33	0x3ea4788b	0.32123217
34	0xbd9d6516	-0.07685296
35	0xbcb0c1bd	-0.021576757
36	0xbe14a836	-0.14517292
37	0xbdd65ca1	-0.10466886
38	0x3cd7f0b1	0.026359888
39	0x3e077a7b	0.13230316
40	0x3ca75fd5	0.020431438
41	0x3db9131d	0.09036849
42	0x3e1472ba	0.1449689
43	0x3e405c74	0.18785268
44	0xbdf851f1	-0.12125004
45	0xbd9ca9ea	-0.07649596
46	0x3d339699	0.043844793
47	0xbe22aab1	-0.15885426
48	0xbdbde53d	-0.09272239
49	0x3b1ce195	0.0023938168
50	0xbcb1d82a	-0.02170952
51	0xbd4fb583	-0.050710212
52	0xbe12133d	-0.14265151
53	0xbd1989a2	-0.037484773
54	0x3e1cb29d	0.1530251
55	0xbd9ce1ff	-0.07660293
56	0x3bdf8ac4	0.006821962
57	0x3e2d9354	0.16950732
58	0x3e39b1dd	0.18134256
59	0x3da506e0	0.08057952
60	0x3d1b1b48	0.037867814
61	0xbd8d89db	-0.069110595
62	0xbd9a39e7	-0.07530575
63	0xbd91814a	-0.07104738
64	0xbec5b382	-0.38613516
65	0xbe2a047a	-0.1660327
66	0x3dcfde46	0.10149817
67	0x3d6caa39	0.057779524
68	0xbd615223	-0.055009972
69	0xbb538787	-0.0032276826
70	0xbdc25255	-0.0948836
71	0xbdeaea82	-0.1147051
72	0xbe939ac4	-0.28829014
73	0xbeab3eba	-0.33446294
74	0xbb2a3751	-0.0025972913
75	0xbe2276ef	-0.15865682
76	0x3dcf7a5f	0.10130762
77	0xbe30cc92	-0.17265537
78	0xbe2a73e5	-0.16645773
79	0x3f069460	0.5257015
80	0xbe2eef93	-0.17083578
81	0xbe465643	-0.19368844
82	0xbdddbe22	-0.108272806
83	0xbe530fbb	-0.2061147
84	0xbde2716f	-0.11056792
85	0xbe20d544	-0.15706354
86	0xbe399a98	-0.18125379
87	0x3e0171c7	0.12641059
88	0x3e4ed0a7	0.20196782
89	0xbb94e556	-0.0045439405
90	0xbe1b3877	-0.15158258
91	0xbd1a3f71	-0.03765816
92	0xbcebb763	-0.028773969
93	0xbd7082e8	-0.058718592
94	0x3dc340d2	0.09533848
95	0x3d3f5864	0.046715155
96	0xbd8fcefb	-0.070219
97	0x3c2d056f	0.0105603775
98	0x3db6ad84	0.08919814
99	0xbe31f3f3	-0.17378215
100	0x3e6ee97e	0.23331258
101	0x3eabb918	0.33539653
102	0x3ea02fe8	0.3128655
103	0x3d4f473a	0.050605036
104	0x3d283bd3	0.041072678
105	0x3dcfe4ef	0.101510875
106	0xbc0e6150	-0.008690193
107	0xbd9625cf	-0.0733143
108	0xbe3222de	-0.17396113
109	0x3df46634	0.11933556
110	0xbcd6e057	-0.02623002
111	0x3c73455f	0.014848082
112	0xbbb3dec3	-0.0054892018
113	0xbe7c4011	-0.24633814
114	0x3c462e0a	0.0120959375
115	0x3ccb986d	0.024852956
116	0xbe66c967	-0.22537766
117	0xbe417a64	-0.18894345
118	0xbe8a7275	-0.2704045
119	0xbca33cde	-0.019926485
120	0xbcde4a7d	-0.027135128
121	0xbfda75c8	-1.7067194
122	0xbc046e84	-0.00808299
123	0xbd92c49b	-0.07166406
124	0xbeacd283	-0.33754358
125	0xbe5ed104	-0.2175942
126	0xbeb26f87	-0.34850714
127	0x3caf7f46	0.021422993
128	0xbe58b85a	-0.21164075
129	0xbd568f11	-0.052382533
130	0xbd83864b	-0.06422099
131	0xbe6b8301	-0.22999193
132	0x3e3c8f8f	0.18414138
133	0x3e86c620	0.26323032
134	0xbb797b5e	-0.0038067917
135	0xbd4954f4	-0.049153283
136	0xbe2fbf09	-0.17162718
137	0xbd176c23	-0.03696836
138	0xbec59af9	-0.38594797
139	0xbe88117c	-0.2657584
140	0x3ec95deb	0.39329466
141	0xbbdc3c16	-0.00672103
142	0x3e2fcd90	0.1716826
143	0xbdded9d8	-0.10881394
144	0xbe657631	-0.22408368
145	0x3e0e2756	0.13882193
146	0xbe516772	-0.20449618
147	0xbe92a740	-0.28643227
148	0xbe9fd26b	-0.31215224
149	0xbd9c69f3	-0.07637396
150	0x3ce3334e	0.027734425
151	0x3e55b76f	0.20870756
152	0x3d7769d1	0.06040365
153	0xbf0af4a4	-0.5427954
154	0x3e19aa37	0.15006338
155	0x3ef765d3	0.48319873
156	0xbe8a39f1	-0.2699733
157	0xbe2ab538	-0.16670692
158	0xbe8b8d58	-0.27256274
159	0xbc4854af	-0.012227221
160	0xbe0f68e7	-0.14004861
161	0xbe1811ab	-0.1485049
162	0x3b96d434	0.0046029333
163	0xbd10dfb7	-0.0353696
164	0xbda51a71	-0.08061684
165	0xbe98883a	-0.29791433
166	0xbec67be4	-0.38766396
167	0x3dc0b50b	0.09409531
168	0x3d6eb24d	0.05827551
169	0x3e96fb81	0.29488757
170	0x3d89627f	0.0670824
171	0xbe3152f5	-0.17316802
172	0xbe48c445	-0.19606121
173	0xbe8c1674	-0.2736088
174	0xbec7bbe3	-0.39010534
175	0x3e97fa20	0.29683018
176	0x3df5a9c9	0.119952746
177	0xbc19cfd7	-0.009387932
178	0xbe676d62	-0.2260032
179	0x3e423fc8	0.18969643
180	0x3d2b140a	0.041767158
181	0xbe418aae	-0.18900558
182	0xbe2a515c	-0.16632599
183	0xbee312ab	-0.4435018
184	0x3da3a03b	0.07989546
185	0xbe10c1a1	-0.14136364
186	0xbea4e5bd	-0.32206526
187	0x3e199908	0.14999783
188	0x3dad9224	0.0847514
189	0x3ec0eb16	0.37679356
190	0x3ee8adca	0.4544509
191	0xbe045fc7	-0.12927161
192	0x3e24ce35	0.16094287
193	0x3cf942ce	0.030427363
194	0x3d112bea	0.03544227
195	0x3ed377e7	0.41302416
196	0x3e0ea9a5	0.13931902
197	0xbd48efd7	-0.049056854
198	0xbe585ea8	-0.21129858
199	0x3e85563f	0.26042363
200	0x3dee3c06	0.11632542
201	0x3cf3a273	0.029740548
202	0xbd12dd23	-0.035855424
203	0x3e0b9ee3	0.13634829
204	0x3e61f86e	0.22067425
205	0xbe2917a6	-0.16512927
206	0xbec737ef	-0.3890986
207	0xbea712cd	-0.3263153
208	0xbdae4f6c	-0.08511242
209	0xbcbf4589	-0.023348587
210	0xbe32c216	-0.1745685
211	0xbdaa071f	-0.083021395
212	0x3e8e31ff	0.2777252
213	0xbde349be	-0.110980496
214	0xbeeb22f3	-0.45925102
215	0xbeab7b09	-0.33492306
216	0xbe49ea32	-0.19718245
217	0x3dd2d7d1	0.1029507
218	0xbe83e214	-0.2575842
219	0xbe22b140	-0.15887928
220	0x3cffb089	0.031212108
221	0xbd0591a3	-0.032609593
222	0xbe66f66b	-0.22554938
223	0xbe5f6161	-0.21814491
224	0x3e399804	0.18124396
225	0x3e28b35d	0.16474672
226	0xbb44eb48	-0.0030047465
227	0xbe82130d	-0.2540516
228	0xbe8a3b84	-0.26998532
229	0xb9a78e58	-0.00031958777
230	0xbe859598	-0.26090693
231	0xbc591dee	-0.013251765
232	0x3dc40bd2	0.09572567
233	0x3d41f85c	0.047355995
234	0x3ecbef7c	0.3983115
235	0xbe29ceaf	-0.1658275
236	0xbe7685d6	-0.24074492
237	0x3e168704	0.14699942
238	0xbef6e7f3	-0.48223838
239	0xbe24c6d6	-0.16091475
240	0xbe04be5c	-0.12963241
241	0x3dcd22e7	0.10016423
242	0xbdd9d26a	-0.106358364
243	0xbeb60513	-0.35550746
244	0xbeae5f55	-0.34057108
245	0x3e630a71	0.22171952
246	0xbea49991	-0.32148412
247	0xbe0ac0a1	-0.13550045
248	0xbe3a5b5e	-0.18198916
249	0x3de52f8c	0.111907095
250	0x3c97db30	0.018537134
251	0xbeb4e86a	-0.35333568
252	0x3d0f5f19	0.0350028
253	0x3c2b3323	0.010449204
254	0xbe3e5fb6	-0.18591198
255	0xbe6d5941	-0.23178579
